example/iris-classification/iris_model.onnx (onnx, 16597 bytes, 4 tensors)

linear1.weight f4 [10, 4]
00000000: f8d3 3bbe 30a5 253d 984b 23be ac05 3fbe
00000010: 0ed4 edbe f0a1 9dbe 0c7b ad3e 4ced 8ebe
00000020: bed8 fc3e a103 b2be 76bc 8f3f 3351 b13f
00000030: 86d6 933e 00db ecbd 3252 d0be 68d4 a1be
00000040: 31bf 353f 9d47 0a3e 444e 873f db31 383e
00000050: ea53 b63e e02a 72be f088 07be e8b9 0dbe
00000060: f1e0 41be a387 c23f e2ce 34bf 023f 85bf
00000070: 4691 933e 89d9 963f 8fc8 9dbf 961c 8fbf
00000080: 985d 403f f6ec 44bf e58a f33f b8ae c23f
00000090: 3b7f f53d acf0 483e 7c4f 073f a8b4 323e
-0.18342578 0.04044074 -0.15946805 -0.18654507 -0.46450847 -0.3078761 0.3388294 -0.27915418
0.4938411 -0.34768394 1.1229389 1.3852905 0.28874606 -0.115652084 -0.4068771 -0.31607366
0.7099486 0.13503881 1.057076 0.17987768 0.35610896 -0.23649168 -0.13235831 -0.13840449
-0.18933465 1.5197643 -0.7062818 -1.0409853 0.28821772 1.1785136 -1.2326831 -1.1180599
0.7514281 -0.76924074 1.9026762 1.520957 0.11987158 0.19623059 0.5285566 0.17451727

linear1.bias f4 [10]
00000000: d656 ccbe 4021 ac3c dd38 e3bd 1cbe 1abe
00000010: 28da 24bf d8b2 c0be 22d3 8e3f 7acd c13f
00000020: d4ec 8e3d 4517 6abe
-0.3991 0.021011949 -0.1109483 -0.15111583 -0.6439538 -0.37636447 1.1158183 1.5140831
0.06978765 -0.22860439

linear2.weight f4 [3, 10]
00000000: 41b4 f2bd 3f54 11be 814a c1bf 9999 49be
00000010: 689b 46bf cb5d 82be e562 a63f 09f4 823f
00000020: be93 f3bf 2109 1bbe 20d2 113e 9090 42bd
00000030: 3a6b d73d efba 383e 6b31 12bf a213 0fbd
00000040: d0f5 92be b27c 873d fa92 0e3e efd5 9abe
00000050: 7556 71be 02d7 8dbe 52b8 5f3f 0d9e ca3d
00000060: 1952 843f 231f 9cbe bd96 10c0 955b 17c0
00000070: daa8 073f 0579 9d3e
-0.11850787 -0.14192294 -1.5100862 -0.19687499 -0.7758088 -0.25462183 1.299893 1.0230724
-1.9029462 -0.15140201 0.14240313 -0.047501147 0.10518499 0.1804006 -0.57106656 -0.034930833
-0.28703165 0.066155806 0.13923255 -0.30241343 -0.23568137 -0.277031 0.87390625 0.09893427
1.0337554 -0.30492505 -2.2592003 -2.3649647 0.5299202 0.30756393

linear2.bias f4 [3]
00000000: 4848 e73d 6f34 0a3f c413 3cbf
0.112930834 0.5398626 -0.7346766
