example/iris-classification/iris_model.onnx (onnx, 16597 bytes, 4 tensors)

linear1.weight f4 [10, 4]
00000000: 68d9 023e 68e5 933f 17f6 60bf b6bb 8ebf
00000010: b0f4 503e 748a 79be 3a8e 9abe b055 f23d
00000020: 2274 a63e d0d3 0a3e 601c 17be c0f5 1e3d
00000030: d7e9 a73b 6191 843f 6004 5ebf 6be0 7fbf
00000040: 8c4e b93e def0 efbe 1457 4c3f 2ca9 b73f
00000050: 8c14 413f 0812 74bf 4412 8f3f e0c2 e43f
00000060: f0d0 6e3e e82b edbd 6a1f cbbe b068 3fbe
00000070: 78ad 543e 576b 553f 333d 4cbf 4bc0 9fbe
00000080: 4275 413f 2ee1 cabd 8425 7d3f 3f9e 4f3f
00000090: d621 a03e 3eb9 9ebe d066 09be ec42 47be
0.12778246 1.1554384 -0.87875503 -1.1151035 0.20405841 -0.24369222 -0.30186635 0.1183275
0.32510477 0.13557363 -0.14756918 0.038808584 0.0051243114 1.0356866 -0.86725426 -0.9995181
0.3619274 -0.46863455 0.7982037 1.4348502 0.7542198 -0.95340014 1.1177449 1.7871971
0.23321891 -0.1158064 -0.39672405 -0.18692279 0.20769298 0.8336691 -0.7978088 -0.31201395
0.75569546 -0.09906231 0.9888537 0.8110084 0.31275815 -0.31000704 -0.13418126 -0.19459122

linear1.bias f4 [10]
00000000: 1212 9b3f 606a b6be f2d3 eebe a566 9b3f
00000010: c746 84bc be0b 4e3e 1c14 82be d2c3 073f
00000020: 1006 b4be 6656 d5be
1.211489 -0.35628033 -0.46646076 1.21407 -0.01614703 0.20121667 -0.25405967 0.53033173
-0.35160875 -0.4166748

linear2.weight f4 [3, 10]
00000000: 0fd5 c73f 4897 c23d 1f89 2cbe 10d4 bf3f
00000010: 5ae2 debf 7829 d8bf d2b0 1f3e 70c3 743f
00000020: 391f d0bf 817a 5fbd fb68 313f 7554 ffbd
00000030: 8820 34be 7feb 0c3f f887 47be 0bdb 953e
00000040: f16f fe3d 2056 16be 757a 8dbe f358 c9bd
00000050: bd84 edbf 70a3 6e3e f54c b7bc d55f 01c0
00000060: 1bef 063f f9e1 ec3e ffba c9bc 58bf 38bf
00000070: b29b 6e3f 4253 733e
1.5611895 0.09501511 -0.16849183 1.4986591 -1.7412827 -1.6887655 0.15594795 0.95610714
-1.6259528 -0.05456019 0.6930081 -0.12467281 -0.17590535 0.5504684 -0.19485462 0.2926868
0.12423695 -0.14681292 -0.2763249 -0.09831419 -1.8556134 0.23304534 -0.022375563 -2.0214741
0.52708596 0.46266153 -0.0246253 -0.7216697 0.9320632 0.23762229

linear2.bias f4 [3]
00000000: 9299 843e 349f 223e dfe2 08bf
0.25898415 0.15881044 -0.5347118
